m2lp_model/models/m2lp_model.pth (torch, 298603 bytes, 55 tensors)

prep_layer.0.weight f4 [16, 3, 1]
000000 91 20 6e 3e bc a4 8c 3e 2b 50 98 3d 24 60 ae 3c
       0.2325461 0.27469432 0.07437166 0.021286078
000010 0c 20 54 3e 58 f8 01 3f c5 32 0b 3e e3 7b e3 be
       0.2071535 0.5076957 0.13593586 -0.44430456
000020 68 b2 da 3e e7 1f 59 3d 69 69 dc 3e 7f 66 2d 3f
       0.42714238 0.05300894 0.43049172 0.6773452
000030 13 27 eb be 16 8e 32 bd f3 29 44 3e a4 5b c3 bd
       -0.4592825 -0.043592535 0.19156627 -0.095389634
000040 3a 0d a3 3e 9e 8e d6 bd c2 6c dd 3e cc 99 81 3e
       0.3184603 -0.10476421 0.43247038 0.2531265
000050 95 94 50 3f 9f af e9 3e 19 8f b8 be b9 16 cd be
       0.8147672 0.456418 -0.36046675 -0.400564
000060 4d 3e ad be e1 92 28 3f e8 9d 71 3e 22 69 69 bc
       -0.33836594 0.6584912 0.23595393 -0.014246257
000070 77 37 b6 be fd 54 de be 63 7e 0f 3e a5 ed bb 3d
       -0.3558919 -0.43424216 0.14013056 0.091761865
000080 7e 04 12 bf 59 d9 e3 be b2 38 74 be 1b e6 89 be
       -0.57038105 -0.4450176 -0.23849753 -0.2693337
000090 00 2c 0e 3f 97 d3 8c 3d 21 eb 13 3e 44 03 0c be
       0.5553589 0.06876295 0.14445163 -0.1367312
0000a0 cf 92 75 3e 72 b3 2c 3f 83 fd a1 be ee 79 f9 be
       0.23981784 0.6746131 -0.31638727 -0.48725837
0000b0 81 6d 42 bf 6b 27 35 3e 01 36 3d be f1 21 2b be
       -0.7594834 0.17690818 -0.18477632 -0.16712166

prep_layer.0.bias f4 [16]
000000 bd 1b b1 be 38 75 c9 be f3 8c 12 bf d9 f9 57 be
       -0.34591475 -0.39347243 -0.5724632 -0.21091403
000010 69 b6 14 bd e1 9f 01 3e d3 33 c0 3e 6d 73 ac be
       -0.036306772 0.12658645 0.3753954 -0.33681813
000020 66 32 72 3e cc 7b 77 3e 9a 08 18 be 1c 74 8f be
       0.23652038 0.24168319 -0.14847031 -0.28018272
000030 ff 19 9a be 3e 10 d6 be c3 5c 2e be 5e 9b 2b 3d
       -0.30097958 -0.41809267 -0.17027573 0.041896217

prep_layer.1.weight f4 [16]
000000 f4 bd 6b 3f 25 a5 89 3f 47 ae 82 3f e0 83 83 3f
       0.9208672 1.0753523 1.0209435 1.027462
000010 aa eb 72 3f fa 89 72 3f 95 ec 89 3f 13 64 79 3f
       0.94890845 0.94741786 1.0775324 0.97418326
000020 b4 43 84 3f a6 80 84 3f e1 94 7a 3f d7 2c 78 3f
       1.0333161 1.035176 0.9788342 0.9694342
000030 ae 8b 71 3f f9 1d 89 3f 0c 1b 85 3f 7f 7a 6c 3f
       0.9435376 1.0712272 1.0398879 0.92374414

prep_layer.1.bias f4 [16]
000000 96 49 0c 3d 71 50 30 3e 6e 73 27 bd 21 15 e0 3d
       0.034249865 0.17218186 -0.040881567 0.1094153
000010 c0 dd d0 bc 94 be f7 bd 18 6a 40 bc 09 68 0d bd
       -0.025496364 -0.12096897 -0.011744045 -0.034523044
000020 04 54 18 3d a5 a8 f8 3c 4d 94 82 bd f3 80 13 3d
       0.0371895 0.030353853 -0.063759424 0.036011647
000030 e3 b4 07 bd f2 3e 34 bc 9b 9b 69 bc 02 59 19 bc
       -0.03313149 -0.011001335 -0.014258291 -0.0093596

prep_layer.1.running_mean f4 [16]
000000 83 4a 95 40 bf aa 43 40 ca 8f 5f c0 8b d0 c8 40
       4.6653457 3.0572965 -3.4931512 6.275457
000010 23 28 73 c0 84 e2 28 40 19 a4 03 41 c0 98 b7 bf
       -3.7993248 2.6388254 8.227563 -1.4343491
000020 d1 aa a6 40 85 42 94 c0 a5 b8 55 3f 5b 70 df c0
       5.2083516 -4.63312 0.8348487 -6.9824653
000030 90 a5 a5 40 19 86 1d 40 8c bb 18 c1 90 6d 66 bf
       5.1764603 2.4613097 -9.545788 -0.9001093

prep_layer.1.running_var f4 [16]
000000 c0 14 2c 40 d6 13 9c 3f 9f dd b5 40 47 25 a5 40
       2.6887665 1.2193553 5.6833034 5.1608005
000010 0a 91 25 40 12 54 39 40 db 7c 82 40 8a 5b c4 40
       2.5869775 2.8957562 4.077741 6.136174
000020 4f f1 54 41 bc 4b 5f 40 b1 1a 06 3f 89 21 7a 40
       13.308913 3.4889975 0.5238448 3.9082968
000030 49 00 75 40 62 28 f1 3f ff 3f f7 40 f2 8a a9 3f
       3.8281424 1.8840449 7.726562 1.3245528

regr_layer.0.weight f4 [1, 256, 1]
000000 5c ed b8 3e 03 a2 dd be d4 ab cd 3e 28 b8 db be
       0.3611859 -0.43287668 0.40170157 -0.42913938
000010 17 78 da 3e 6a a2 d2 be 11 47 cc 3e e6 d7 c5 be
       0.42669746 -0.41139537 0.3989797 -0.3864128
000020 c9 5f d2 3e 7f 96 d6 3e a1 06 bc 3e e1 36 d9 be
       0.41088703 0.41911694 0.36723807 -0.42424682
000030 c2 ef d8 3e be 3a dc be 47 47 c1 be f5 fd c0 3e
       0.4237042 -0.43013567 -0.37749693 0.37693754
000040 c6 8a cd be a5 3c d6 be 1d 2d e3 be 3b 7d db be
       -0.40144938 -0.41843143 -0.44370356 -0.4286898
000050 38 76 c4 3e f5 05 c7 be aa 9e cd be a4 ce a9 3e
       0.38371444 -0.38871732 -0.40160114 0.33165467
000060 e2 82 d8 be 51 b2 e5 be 67 b6 b6 3e da 87 ce 3e
       -0.42287356 -0.44862607 0.35686037 0.40338022
000070 64 9c db 3e d6 79 d9 be be f5 ee be c1 7e c2 3e
       0.42892754 -0.42475766 -0.4667186 0.3798733
000080 9a ee ea be 56 e5 d0 3e 27 c5 c3 be 57 cb cf 3e
       -0.45885164 0.4079997 -0.38236353 0.40584823
000090 f4 a0 c3 be d5 0e ef be 4c 67 e5 be 4e 25 e5 be
       -0.38208735 -0.46691003 -0.44805372 -0.44755024
0000a0 a9 cb cd be 4a 5e b3 3e 6f 31 c6 3e 1d ca c7 3e
       -0.40194443 0.35032874 0.3870959 0.39021388
0000b0 a9 b6 d3 be 4e dc c6 be 39 6f c1 3e 16 32 ca be
       -0.41350296 -0.38839954 0.3778017 -0.39491338
0000c0 3d 60 d3 be 4b 0d d9 3e 95 db bb 3e ed 84 d0 be
       -0.4128436 0.42392954 0.36690965 -0.40726414
0000d0 0b ac ce 3e ab 22 dd 3e 3e 06 e0 3e 6c 76 bd 3e
       0.40365633 0.43190512 0.43754762 0.3700441
0000e0 63 cc d7 3e 7e a9 9f 3e 48 b1 c0 be 30 07 dd be
       0.42148122 0.31184 -0.37635255 -0.43169546
0000f0 43 75 f0 be 35 b1 d0 be 7a c7 cd be 67 e4 c1 3e
       -0.46964464 -0.40760198 -0.4019125 0.3786957
000100 f1 c0 d2 3e 38 19 c1 3e 8f 3d ed be 7c 47 c0 3e
       0.41162828 0.37714553 -0.46336028 0.37554538
000110 ae cb cc be cf e0 dc 3e 9d c9 c5 3e aa e5 a8 3e
       -0.39999145 0.43140265 0.3863038 0.3298772
000120 87 34 b3 3e 81 98 b5 be 4d ff e9 be 21 dd a4 3e
       0.35001013 -0.35467914 -0.45702592 0.32199958
000130 0c a7 d3 3e 82 8e d5 be 3c 60 d8 be 7b 2b b0 3e
       0.41338384 -0.41710287 -0.4226092 0.34408173
000140 3c ed c0 3e 54 d5 bd 3e 3b cf d8 be c2 06 c4 3e
       0.37680995 0.3707682 -0.42345604 0.38286406
000150 76 94 d8 be 80 f7 d2 be 26 c9 d4 3e 4b f6 c4 3e
       -0.42300767 -0.41204453 0.41559714 0.38469157
000160 b0 fb be 3e 96 16 d3 be fa f1 c5 3e 67 eb b0 3e
       0.37301397 -0.4122817 0.38661176 0.34554598
000170 09 fc a9 3e 43 fe d6 be b5 8c b8 3e 3c ba aa 3e
       0.332001 -0.4199086 0.3604485 0.3334521
000180 a2 13 f4 be 93 94 c0 3e 2f d7 d5 be d2 ab bf 3e
       -0.4767123 0.37613353 -0.41765735 0.37435776
000190 07 bf c2 3e d5 03 dc 3e e9 0f e0 be 04 3b aa 3e
       0.38036367 0.42971674 -0.43762138 0.3324815
0001a0 56 f6 c3 3e c0 2b ce be e4 ac ba be 51 f6 c0 3e
       0.38273877 -0.40267754 -0.3646003 0.37687925
0001b0 e7 40 c0 3e 3a bd d1 3e 54 87 db be 75 2a c5 3e
       0.37549517 0.4096468 -0.42876685 0.38508955
0001c0 90 21 b4 3e 96 68 c0 3e 06 a4 d2 3e 95 51 cb 3e
       0.35181856 0.37579793 0.41140765 0.3971068
0001d0 e4 f0 db 3e d8 23 bf be f8 0f e2 be 74 18 bd 3e
       0.42957222 -0.37332034 -0.44152808 0.3693272
0001e0 f0 0c ba be b5 c0 db be 6f 1b d6 be f0 a6 d6 be
       -0.36337996 -0.4292046 -0.41817805 -0.41924238
0001f0 98 18 ea be 5b ad e0 be 26 53 d4 be 5a 8d dd 3e
       -0.4572189 -0.4388226 -0.41469687 0.43271905
000200 83 c1 cc 3e 6a b5 cb 3e d1 09 c6 3e f3 af b8 3e
       0.39991388 0.39786845 0.38679364 0.3607174
000210 14 c6 c9 be bb d5 de be df c2 b7 3e f1 d4 e2 be
       -0.39408934 -0.43522438 0.35890862 -0.44303086
000220 a9 0a c9 3e b1 0e c8 3e 11 26 cf 3e 3e 56 e3 be
       0.39265946 0.3907371 0.4045873 -0.44401735
000230 99 60 cc be 27 e1 d3 3e 8e 9b c1 3e a6 ea d2 3e
       -0.39917448 0.41382715 0.3781399 0.41194648
000240 17 ad d1 3e 52 26 ce be 6b 40 ba 3e a6 05 dd 3e
       0.4095237 -0.4026361 0.36377272 0.43168372
000250 ed 01 e3 be 26 57 c4 3e ae 98 d8 be f7 3c af 3e
       -0.44337407 0.3834774 -0.42303985 0.342262
000260 50 8c ca be e6 2c c4 3e dd 7a ca be 32 a1 bf 3e
       -0.39560175 0.38315505 -0.39546862 0.3742767
000270 ce a7 e3 be ae 6a ec be e9 99 c5 be 3b 6b cf be
       -0.44463962 -0.4617514 -0.38593987 -0.40511498
000280 6a 42 ba 3e e3 d6 c8 3e f8 0f d6 3e cf 86 af be
       0.36378795 0.39226446 0.41809058 -0.34282538
000290 21 6a cb be d2 fc d8 be 8a b3 c0 be b2 57 d5 be
       -0.39729407 -0.42380387 -0.37636977 -0.4166847
0002a0 b8 a4 d2 3e 9f 91 c4 be fb 99 e0 be 50 61 8e 3e
       0.41141295 -0.3839235 -0.43867478 0.2780862
0002b0 6b ca ab 3e 95 04 c6 be 76 51 d9 3e 55 ba d6 be
       0.3355287 -0.3867537 0.42444962 -0.41939035
0002c0 db 7d c2 3e c4 e6 e3 be 29 36 bf 3e 5c 23 c0 3e
       0.37986645 -0.44511998 0.37346008 0.37526977
0002d0 91 74 af 3e 65 fc d1 3e 44 4a b2 3e d1 07 c2 3e
       0.3426862 0.41012874 0.34822285 0.37896588
0002e0 a6 89 c6 be 3f b8 cd be d1 b5 cf 3e c3 c7 d6 be
       -0.38776892 -0.4017963 0.40568402 -0.4194928
0002f0 24 88 e7 be b0 2f df be e5 a9 dd be 40 6b cf 3e
       -0.45221055 -0.4359107 -0.43293682 0.40511513
000300 2c 19 cb 3e 3b d0 d3 3e 17 a8 cc be 37 76 ca be
       0.39667642 0.41369805 -0.39971992 -0.39543316
000310 32 0d ba be 90 39 c5 3e 5c b7 d9 3e 70 52 cb 3e
       -0.36338192 0.3852048 0.42522705 0.39711332
000320 86 c1 da be 98 01 ca 3e 07 13 de 3e 9b df de be
       -0.42725772 0.3945434 0.43373892 -0.43529972
000330 a0 23 da be 83 15 bb be e1 44 ca be 07 95 ca be
       -0.42605305 -0.3653985 -0.39505675 -0.39566824
000340 ef 22 d6 3e a4 84 ad 3e a2 02 c3 3e b3 86 d4 be
       0.41823527 0.3389026 0.38087946 -0.41509017
000350 41 8d df be 81 66 de be de c1 bf 3e e1 e8 ce 3e
       -0.43662456 -0.4343758 0.37452596 0.40412048
000360 c2 67 cc 3e 55 08 f0 be e6 56 e4 be ca e0 cb 3e
       0.3992291 -0.46881357 -0.44597548 0.39819938
000370 af 0c cc be be 43 c8 be 36 8d cb 3e 7f da c1 3e
       -0.39853427 -0.39114183 0.39756173 0.37862012
000380 93 9e d1 3e 47 99 bc 3e fe 05 d4 be ea fe bb 3e
       0.40941295 0.3683569 -0.41410822 0.36717921
000390 b3 70 d8 3e cb 87 db 3e 53 f7 c5 3e c0 f5 c6 be
       0.42273483 0.4287704 0.38665256 -0.38859367
0003a0 d7 8e c9 be 44 52 c1 3e 66 9e cf be c9 2b ba 3e
       -0.3936679 0.37758076 -0.40550536 0.3636153
0003b0 b4 d6 c3 3e f5 e3 e3 be 6b 42 de be 76 22 c1 3e
       0.38249743 -0.44509855 -0.43410048 0.37721604
0003c0 00 16 e8 be 0d 49 c8 3e cc 9a c4 be e4 f2 b9 3e
       -0.45329285 0.39118233 -0.3839935 0.36318123
0003d0 6b ae db be 65 1a b9 3e 92 d6 d5 3e fc 7d df be
       -0.42906508 0.3615295 0.41765267 -0.43650806
0003e0 ba cb d2 3e 9a 26 d0 be 95 09 db be 7c e6 d4 3e
       0.41171056 -0.4065445 -0.42780748 0.41582096
0003f0 19 a4 d9 3e e7 30 ee be c4 7c c0 3e e2 7b ba 3e
       0.4250801 -0.46521685 0.3759519 0.3642264

hyper_layers.Conv0.weight f4 [16, 16, 1]
000000 04 20 2d be 8e 8c 8e be 14 68 85 bb 7c 8e 66 be
       -0.16906744 -0.2784161 -0.004071245 -0.22515291
000010 96 09 ec 3b c6 e1 76 3d b3 76 81 be 87 05 a8 3d
       0.007203291 0.060273908 -0.25285873 0.08204179
000020 15 dc 7e 3d 04 2b 96 3e 8d 86 39 3c 08 50 4a be
       0.062221605 0.29329693 0.011323583 -0.19757092
000030 c5 8c 04 3e 9c 4c af 3d 9c e0 ee bd 73 28 ce 3d
       0.12944324 0.08559534 -0.116639346 0.10066309
000040 cf 3b 75 3e db 98 9b bd 1d e5 a1 3d b6 38 24 3e
       0.23948596 -0.07597514 0.07905028 0.16037259
000050 93 48 26 be 72 cf be 3c 65 b7 81 3e 64 54 5b bd
       -0.16238622 0.023292277 0.2533523 -0.053547278
000060 cc 50 b3 3d 83 97 21 bc 6a 61 8c be f2 a1 6a 3e
       0.08755645 -0.009862783 -0.2741807 0.2291334
000070 eb e6 7b 3c 88 0f 68 3b 9b cf ac b8 7c ba 25 be
       0.015374879 0.0035409648 -8.240269e-05 -0.1618442
000080 fb 68 10 3e 10 35 97 3e ae 7f 05 be 38 51 88 3a
       0.14102547 0.2953267 -0.13036987 0.0010400182
000090 21 fe 11 be fa ff cd bd 8a f4 ec bd b6 d4 91 bd
       -0.14257099 -0.10058589 -0.115700796 -0.071206495
0000a0 84 c8 60 3e ab 82 40 be 79 ca 54 bd 12 21 b1 bd
       0.2195149 -0.18799846 -0.051950905 -0.08648886
0000b0 89 28 d4 bc c4 e2 ba 3d 01 d9 25 be b0 ef 9a bd
       -0.025898235 0.09125283 -0.16196062 -0.07565248
0000c0 56 bb 49 3d 7f e0 5e be 1c f7 e7 bd c2 70 60 be
       0.049250923 -0.21765326 -0.11326429 -0.21918014
0000d0 f2 1c 2b 3e f6 e6 87 bc 54 f6 3a 3e c1 c3 ea 3c
       0.1671026 -0.016589623 0.18258029 0.028657796
0000e0 27 f7 b9 bd e0 4c 28 bd 52 26 44 3e 6d 7e 34 3e
       -0.09080344 -0.04108894 0.19155243 0.17626353
0000f0 5c d3 99 3d b3 33 b2 bd 74 a4 8a be cf b5 e7 3d
       0.07511017 -0.08701267 -0.27078593 0.11313974
000100 63 25 38 3e 4d 04 a9 3e ba d5 ba bc 97 03 37 bd
       0.17983012 0.33011094 -0.02280699 -0.044681158
000110 d0 ec 8c bd e6 98 6d be 3c d7 09 3e 36 df 3a be
       -0.06881106 -0.23202857 0.13461012 -0.1824921
000120 74 a0 09 3e f1 43 7b 3d 67 3b 28 bd a8 7a 92 bd
       0.13440114 0.06134409 -0.041072275 -0.07152301
000130 dc bf 48 3e 56 cf 82 3e 8c e0 82 3e d3 4a b3 3c
       0.19604439 0.2554881 0.2556194 0.021886265
000140 c0 07 08 3e 59 19 ec 3d b3 6d 52 be 01 05 85 bc
       0.13284206 0.11528272 -0.2054966 -0.016237738
000150 16 66 35 3e cb e8 f1 bd 9e 67 f9 3d 00 36 00 be
       0.17714724 -0.1181198 0.121779665 -0.125206
000160 2d cc 26 3e 06 d7 74 be ef e8 c5 3d a0 8c 2e be
       0.16288824 -0.2391015 0.09663569 -0.17045832
000170 1f 50 58 3e b0 f1 76 be 3d 36 a1 be ad b5 23 be
       0.21124314 -0.24115634 -0.31486693 -0.15987273
000180 1e fc e9 3d 41 02 4f be 71 96 21 bc 9c e3 0e bd
       0.11425041 -0.20215704 -0.009862528 -0.034885034
000190 cc 99 2a 3d 08 0d 8b be 47 34 99 be 1e d5 37 3e
       0.04165058 -0.2715838 -0.29922697 0.17952392
0001a0 fb 83 2d 3d d2 a2 ca bd eb 23 ec bc 61 34 dc 3d
       0.042362195 -0.09894337 -0.02882572 0.10752178
0001b0 23 12 3c be 93 f6 b0 be bf 52 eb 3d ef 80 59 3e
       -0.18366294 -0.3456312 0.11490392 0.2124059
0001c0 bf 03 2c 3e b3 28 81 bd 59 1e 0c 3e 39 29 53 be
       0.16798304 -0.06306591 0.13683452 -0.20621194
0001d0 f3 49 9b 3d 1d 10 40 3e 1e 46 9e be fb aa c1 3c
       0.07582464 0.18756147 -0.3091287 0.0236411
0001e0 07 87 58 bd 46 7d fd 3d a7 40 98 3d f1 9d b1 3c
       -0.052863147 0.1237741 0.074342065 0.021681758
0001f0 02 1f 26 3d d0 84 5c be 3e 8c 5e 3e 1c f8 47 3e
       0.040556915 -0.21535039 0.21733186 0.1952824
000200 36 d2 3e 3c 60 b6 a6 3c 2b c6 44 3e ae 1b 1e be
       0.011646798 0.020350635 0.1921622 -0.15440246
000210 87 f3 8a 3e 1c 3e 90 3b a1 95 e0 bc 3a cb 7f bd
       0.27138922 0.0044019353 -0.027415099 -0.06244967
000220 0e 62 6a 3e d6 a2 12 bc 3f c3 0b 3e 22 bd f8 bb
       0.22888967 -0.008949956 0.13648699 -0.0075909058
000230 3e 74 68 be f7 3b 7d 3e 4f 00 81 3d c1 0f 4a be
       -0.22700593 0.24729906 0.06298887 -0.19732572
000240 9b 3f 38 b9 ec c6 37 3d 1c 0c 97 3e ee ae 31 3c
       -0.00017571302 0.04486744 0.29501426 0.010844929
000250 94 00 20 3e 79 ac c7 3c ef 87 a0 bd d9 73 04 be
       0.1562522 0.024374234 -0.07838427 -0.12934817
000260 17 e0 69 3e 85 75 80 3e e8 79 1e bc 3c f7 1e 3e
       0.2283939 0.2508966 -0.009672619 0.15524
000270 f4 16 5a 3e 80 5a 84 3e 77 af 17 bd c2 31 f8 3d
       0.21297818 0.25850296 -0.03703257 0.121188655
000280 4c 4c a0 3d a3 b4 4e be 73 a6 72 3e 27 00 68 3e
       0.078270525 -0.20186095 0.23696308 0.22656308
000290 21 3b 89 bc fa 33 f7 3d ff d7 93 bd cf 1f 2f 3e
       -0.016751828 0.120704606 -0.07218932 0.17101978
0002a0 80 ff 30 be 68 29 eb 3d 82 8f 42 be 13 9b fc 3d
       -0.17284966 0.11482507 -0.19000056 0.123342656
0002b0 aa f1 f4 bd a1 17 cd 3d fc ec 45 be 91 6b 8d bd
       -0.11960156 0.100142725 -0.19328684 -0.06905282
0002c0 84 36 c4 3d ae a2 84 be 39 cb 0d 3e d2 3d 2e be
       0.095807105 -0.25905365 0.13847055 -0.1701577
0002d0 c1 5a 8d 3e a5 4c 9a bc b1 3a 73 be 10 6a 53 3e
       0.27608302 -0.018835375 -0.23752858 0.20645928
0002e0 42 f2 04 be b0 aa 6e be 3b 8d 5b 3e ff 32 96 bd
       -0.12983039 -0.233073 0.21440594 -0.073339455
0002f0 f7 b5 21 be de 89 22 be ca 52 75 be 51 cf d3 bd
       -0.1579207 -0.15872905 -0.23957363 -0.10342277
000300 cb 5d 5a 3e 69 81 b9 3a 7c 0f 85 be 1c b3 ba 3d
       0.21324842 0.0014152947 -0.25988376 0.09116194
000310 ff f8 57 3e 40 7b 43 3e 07 bb 81 bc 26 c3 96 be
       0.21091078 0.19089985 -0.015836252 -0.2944576
000320 ae 44 3b 3e 65 29 c8 bc b8 2d 50 3d 98 a7 c2 3c
       0.18287918 -0.024433801 0.05082485 0.023761556
000330 8b f6 28 bd d8 e1 63 3e ab e1 2f bd c3 5e 94 3d
       -0.041250747 0.22254121 -0.042939823 0.07244637
000340 47 59 69 be 71 a2 74 bd 33 ef 5a 3e 04 d8 0f be
       -0.22787963 -0.05972523 0.2138031 -0.14047247
000350 ab da f4 3d 2d 53 d7 3d 10 24 fc bd d8 f0 09 3c
       0.1195577 0.105139114 -0.12311566 0.008419238
000360 98 18 99 be 21 cd 33 be 6f 9f 8d 3e fd dc 5c 3e
       -0.29901576 -0.17558719 0.276607 0.21568675
000370 d2 c0 a1 3d f6 98 1e be 69 c3 1f 3e 61 51 46 be
       0.07898106 -0.15488037 0.15601887 -0.19366981
000380 af 48 89 be ef d1 d0 be 94 f7 d3 bd 22 6f 1a be
       -0.26813266 -0.40785167 -0.10349956 -0.15081456
000390 d9 51 34 be d2 3e 5e 3d 19 63 1d bd 93 7e b5 3d
       -0.17609347 0.05425913 -0.038424585 0.08862033
0003a0 fa ee 49 be c0 19 14 3e 0f c6 fb bd 82 76 3a 3e
       -0.19720069 0.14462948 -0.12293636 0.1820927
0003b0 c7 71 47 be 15 11 a7 bd da e1 b2 bd 16 42 3d 3e
       -0.19476996 -0.08157555 -0.08734484 0.18482241
0003c0 4c 6a 62 be 11 06 b1 3b 95 38 07 bc d3 22 97 3d
       -0.22110862 0.0054023345 -0.008253236 0.07379689
0003d0 b2 fc 4a 3e ea 01 3c 3e 17 4a 57 be be b1 34 3e
       0.19822958 0.18360105 -0.21024357 0.17645928
0003e0 f2 22 a0 3d b6 62 ad bd 06 00 26 be 95 c3 15 be
       0.07819165 -0.08466093 -0.16210946 -0.1462539
0003f0 72 f9 55 3d f2 26 cf bd 91 8a 96 be eb cc 06 3e
       0.052239843 -0.1011485 -0.29402593 0.13164108

hyper_layers.Conv0.bias f4 [16]
000000 e2 ef 03 be ef d1 25 be 93 02 0b 3e 6d d6 fa 3d
       -0.12884477 -0.16193365 0.135752 0.1224793
000010 09 40 5f be 39 d2 47 3e 1d cb b8 3d a7 8f f7 bd
       -0.21801771 0.19513787 0.09023116 -0.120879464
000020 a3 29 42 3e 13 58 09 be 98 a7 10 3e 31 31 a9 bd
       0.18961196 -0.13412504 0.14126432 -0.08261336
000030 ba 98 1a 3e 71 a0 94 be 07 1c 48 3e d1 33 b3 3d
       0.15097323 -0.29028657 0.19541942 0.087501176

hyper_layers.BN0.weight f4 [16]
000000 da b7 83 3f 79 2d 7f 3f 3e 4c 89 3f 18 5a 62 3f
       1.0290482 0.9967876 1.0726392 0.8841872
000010 f6 85 88 3f 41 50 70 3f 84 cd 8d 3f 0b 3f 86 3f
       1.0665882 0.9387246 1.1078343 1.0487989
000020 19 cb 61 3f 48 e2 69 3f ff 08 5a 3f 0a 7b 82 3f
       0.8820053 0.913609 0.85169977 1.0193799
000030 16 e1 74 3f 2d f5 88 3f bc b0 77 3f 0e 06 81 3f
       0.95655954 1.0699822 0.9675405 1.0079973

hyper_layers.BN0.bias f4 [16]
000000 51 14 68 ba 93 b9 3e bd f9 47 b7 3c bb 51 07 bd
       -0.0008853125 -0.046563696 0.022373186 -0.03303693
000010 77 1d 7c bb 34 1a 08 bd ca 9a 18 3d cf 8e 0d 3d
       -0.003846971 -0.033228114 0.037256993 0.03456002
000020 37 c3 00 be 4d 65 9f bc 3d 2b 3d be 1a 74 b1 3b
       -0.12574469 -0.019457484 -0.18473525 0.0054154517
000030 e7 41 dc 3c be c0 ad 3d 70 9d b8 bd 1f 08 5d 3d
       0.026886893 0.08484028 -0.09014404 0.053962823

hyper_layers.BN0.running_mean f4 [16]
000000 d1 22 b5 be a0 bb 44 3c 5e 4a ee 3c b1 43 86 3c
       -0.35378125 0.012007624 0.029088195 0.0163897
000010 e1 43 6a 3e 32 ae 03 bd 3b 24 5d be 6a 94 50 bc
       0.22877456 -0.032148547 -0.21595852 -0.012730697
000020 4a 40 cb 3e 96 22 fe 3e 64 0b 3d 3e 80 15 05 bf
       0.39697486 0.49635762 0.18461376 -0.5198593
000030 48 73 c8 3e 87 8a dc be 34 a6 b2 be 34 53 8d bd
       0.39150453 -0.43074438 -0.34892428 -0.06900635

hyper_layers.BN0.running_var f4 [16]
000000 8d e4 89 3e 55 3b 90 3d c6 6a d7 3e 1d c7 b7 3d
       0.26932183 0.07042567 0.4207365 0.08973525
000010 6c bc 3a 3e dc 00 07 3f 1d a2 01 3f e1 10 ac 3e
       0.1823594 0.52735686 0.5063799 0.33606628
000020 3c 77 23 3e 55 ec cc 3d 0b b1 82 3d 4e 19 12 3e
       0.15963453 0.10006014 0.063814245 0.14267465
000030 89 b9 03 3f fd 77 85 3e f3 33 2e 3f 41 bb a3 3d
       0.5145498 0.26068106 0.6804802 0.079947

hyper_layers.Conv0_exp.weight f4 [32, 16, 1]
000000 da 00 82 3e 5e 16 7e 3e 8e 23 a3 bc d0 e5 16 bd
       0.25391275 0.2481322 -0.019914415 -0.03684026
000010 b3 36 08 3e 97 1c d3 3d 86 fc 8e 3e 34 7a 6d 3e
       0.13302116 0.103081875 0.27927035 0.23191148
000020 82 07 03 bd 1c 86 bc 3d ef 69 b6 3c 8c c7 4b 3e
       -0.031989582 0.09205267 0.02226731 0.1990034
000030 57 66 21 be f8 e6 7f 3e c4 bb c2 bd 75 da 56 3e
       -0.15761696 0.24990451 -0.0950847 0.20981772
000040 14 0d 14 bd 65 7b 65 be ef d8 1e 3e f0 31 fb 3c
       -0.036145285 -0.22410353 0.15512441 0.03066346
000050 42 8f a8 bd 8e 8d 92 3d b3 4d 4d 3e 62 99 03 be
       -0.08230449 0.07155906 0.20049171 -0.1285148
000060 bf 48 03 bd 6a d7 c6 3d c9 bf 13 3e b8 b6 83 3d
       -0.032051798 0.09709056 0.14428629 0.06431335
000070 bd 4f 4a bd e8 f1 bd be d1 31 a3 bc 42 23 4c 3e
       -0.04939245 -0.37098622 -0.019921215 0.19935325
000080 d9 db 96 be fe b8 3e 3e 75 be 3a 3e ba d9 4b 3e
       -0.29464605 0.18625256 0.18236716 0.19907275
000090 a7 19 d3 bd 13 20 0e 3e a1 28 38 bd 68 15 7b be
       -0.10307627 0.13879423 -0.04496062 -0.24519885
0000a0 29 c7 51 be 0b ec 0e be 42 c6 84 be 65 42 06 3e
       -0.2048613 -0.13957231 -0.2593251 0.13111265
0000b0 db 7c 96 bd 27 b1 cd 3d 76 75 ce 3d 58 14 30 be
       -0.07348033 0.10043555 0.10080998 -0.1719526
0000c0 57 81 4c 3e b3 67 50 be 08 e4 74 3e 50 7c 98 3e
       0.19971214 -0.20352058 0.23915112 0.29782343
0000d0 e3 9e b7 bc 41 65 69 3e 44 78 59 be 05 11 08 3e
       -0.02241463 0.22792532 -0.21237284 0.13287742
0000e0 16 40 4e 3d c1 0c c8 bd 3c c6 2e be a7 11 f3 3d
       0.050354086 -0.097680576 -0.17067808 0.11868601
0000f0 ab 46 f5 3c 6d b5 4b 3d 58 c7 34 be 67 0c 14 3e
       0.029940924 0.049733568 -0.17654169 0.14457856
000100 90 0c 24 3d 15 3d fe 3d a2 00 ee 3d 87 01 f0 3d
       0.040051043 0.12413994 0.116212144 0.11719041
000110 cd 48 09 be 5f ac 83 bd cd 36 2e 3e 06 02 9d 3e
       -0.13406678 -0.064293616 0.17013092 0.30665606
000120 4d 83 49 be 1b f8 ce bd 54 d2 44 be 8e 82 73 bd
       -0.19678994 -0.10105916 -0.19220859 -0.05945068
000130 a0 c3 b1 bd 32 34 cf 3d ef b0 49 3d 8e 5f 73 be
       -0.08679891 0.10117377 0.049241003 -0.2376692
000140 dd a7 a5 be 9e e2 93 3d 53 99 ad bd 89 b5 91 3d
       -0.32354632 0.07220958 -0.0847651 0.07114703
000150 c4 76 1c bd 1b 17 7d 3e 73 1c 28 be 72 43 42 be
       -0.0381992 0.24715845 -0.16417103 -0.18971041
000160 a4 55 2f be dc 82 16 be 48 97 f4 3d 7f 0b 93 bc
       -0.17122513 -0.14698356 0.11942917 -0.017949818
000170 d7 d1 8a 3e a9 65 19 3e 54 25 db bd 8b 0a dd bd
       0.2711322 0.14980187 -0.10700479 -0.107930265
000180 c5 70 69 bd ad 3b df 3d 48 33 1f 3e 59 50 81 be
       -0.05699231 0.10900054 0.15546906 -0.25256613
000190 b2 ea 81 be 5a da 55 be 12 a7 10 bc a2 3e cb bd
       -0.2537437 -0.20884076 -0.008828895 -0.09924056
0001a0 b3 0e 65 3e 06 7a fe 3d ca f0 f7 3d 98 69 8b 3d
       0.22368889 0.12425618 0.12106474 0.0680725
0001b0 43 63 6d 3d 24 c3 91 be 51 e1 33 bc 65 fa 84 3e
       0.05795599 -0.28469193 -0.010979013 0.25972286
0001c0 10 a0 96 be 14 b0 45 3d bc 1f b2 3e 57 34 81 3d
       -0.29418993 0.048263624 0.34789836 0.06308811
0001d0 e8 5f e6 bc ad f5 5d 3d b1 51 16 3d 62 32 7e be
       -0.028121904 0.054189373 0.036699 -0.24823907
0001e0 e7 00 bf 3d 6e df fb bd 57 07 2e be ca 07 5f be
       0.09326344 -0.12298475 -0.16994987 -0.21780315
0001f0 89 9f d2 3d ad 96 89 be de 02 29 3e 29 33 09 bd
       0.10284335 -0.2687277 0.16505 -0.033496056
000200 43 71 26 be b3 e2 0b 3e 1d 63 28 3e f9 cf a5 3d
       -0.16254143 0.13660698 0.16444059 0.08096308
000210 0d 8e 5d be 66 06 1e 3e 0a 11 cd bd 59 00 ee bb
       -0.2163622 0.15432128 -0.100130156 -0.007263225
000220 66 bb 6a 3e 59 9a 96 bd 65 6f af bd 46 a9 20 bd
       0.2292305 -0.07353658 -0.08566169 -0.03922393
000230 39 5b 25 be 2d ce 94 be 11 5e e2 bc 56 46 68 bd
       -0.1614808 -0.2906355 -0.027632745 -0.056707703
000240 8e ce 5d 3e 4d 06 70 bd e6 21 59 be fb 61 56 be
       0.21660826 -0.05859976 -0.21204337 -0.20935814
000250 10 45 b2 3d ca 56 63 3e ce 52 66 be 9c f5 32 3e
       0.08704579 0.22201076 -0.22492525 0.17476505
000260 65 ff 23 3d c5 76 a3 be 26 0c 4e bc 1c f8 0f 3e
       0.040038485 -0.3192655 -0.012576139 0.1405949
000270 9e 94 47 be ae f9 c4 bd cb 76 95 3d ac 47 19 3e
       -0.19490287 -0.09617935 0.072980486 0.14968747
000280 72 e3 58 3e 27 91 6d 3e e6 4d 13 3e 4b 0d 08 be
       0.21180514 0.23199902 0.14385185 -0.13286321
000290 0a 10 ba 3d da 22 cc 3d 77 cd b1 3c 94 e2 19 3e
       0.090850905 0.09967585 0.021704419 0.15027839
0002a0 b4 5e d7 3d 42 eb 45 3e a3 08 a1 bc b6 ff c1 bc
       0.1051611 0.19328025 -0.019657439 -0.023681503
0002b0 f7 98 16 3d ab a3 29 bd 74 2d 31 3e ef 64 d7 bd
       0.036766972 -0.04141585 0.17302495 -0.105172984
0002c0 1a a9 5a 3e 35 24 65 bd 9e 5b 3a 3e a2 04 14 3e
       0.2135357 -0.055942733 0.18199012 0.14454892
0002d0 1c 1a 02 be 66 b4 87 bc 28 66 6c 3d 08 08 35 3e
       -0.12705272 -0.016565513 0.05771461 0.17678845
0002e0 4a db a1 3d 48 a6 e2 3d eb 85 a6 bd 7c cc 7b 3e
       0.07903154 0.11066872 -0.081310116 0.24589723
0002f0 d5 90 00 3e f6 80 e1 bd 49 f5 9d bd 47 0d 8c 3e
       0.12555249 -0.110109255 -0.077128 0.2735388
000300 6f eb 66 3e 11 b1 2b bd d9 cc 36 3e 5e 3c 3f bd
       0.22550748 -0.04191691 0.1785158 -0.04668843
000310 4a be 9a be b4 23 1e 3e ff a6 62 3e 05 e3 14 3e
       -0.30223304 0.15443307 0.22134016 0.14539726
000320 f3 16 8b bb 82 ea 99 3d a5 ed 00 bd 83 ba f9 bd
       -0.004244679 0.07515432 -0.031476635 -0.121937774
000330 04 e2 70 be a4 db ab 3c 37 71 bc bc 63 0b 86 bd
       -0.23523718 0.020978756 -0.023003204 -0.065451406
000340 7e 2e 4f 3e 68 69 65 3e 63 1b 8e be 00 d4 9b bc
       0.20232579 0.2240349 -0.2775527 -0.019021988
000350 7a a9 19 be 06 88 5d bd 39 e5 aa 3e b4 39 37 3e
       -0.15006056 -0.0540848 0.33378008 0.17893106
000360 d2 c5 fc 3d de d4 69 be 9f bc c0 bd 97 6e de 3d
       0.12342419 -0.22835109 -0.094109766 0.10860937
000370 95 4a 98 3d 03 7b 34 bd c0 fa a1 bd 34 b6 eb bd
       0.074361004 -0.044062626 -0.07909155 -0.11509362
000380 d5 00 81 be 64 4f a5 3d 95 5b c9 3d ec a2 a1 3d
       -0.25195947 0.08071783 0.09831921 0.07892403
000390 b5 e6 4a 3e 56 95 cf 3c 48 71 3b 3e 10 17 f1 bc
       0.1981457 0.025339764 0.18304932 -0.029429942
0003a0 34 1b 2c 3e b3 9d 9d bd 8d f1 c1 3d 3a 31 4d be
       0.16807252 -0.07696094 0.094699 -0.2003831
0003b0 3b 9b 78 bd ff 05 31 be b2 e4 2e 3e ed a6 35 3d
       -0.060694914 -0.17287444 0.17079428 0.044348646
0003c0 f7 b7 90 be 5a 2a 8c be ef 1f 1c bd ff 87 2b 3e
       -0.28265354 -0.27376062 -0.03811639 0.16751097
0003d0 9b eb 73 3d 44 c2 71 3e 99 17 27 be 2b f4 84 be
       0.059550863 0.23609263 -0.16317596 -0.25967535
0003e0 22 86 fb bd ee 2b be bd 1e 34 37 3e 5e 77 b5 3d
       -0.12281443 -0.09285723 0.17890975 0.08860658
0003f0 08 da c7 bc a8 51 97 bc bf ca 40 be 2d 0e ea 3d
       -0.024395958 -0.018471554 -0.18827341 0.11428485

hyper_layers.Conv0_exp.bias f4 [32]
000000 06 35 02 be c4 34 b3 bd 73 f2 86 3d 29 4d 1f bd
       -0.1271554 -0.087502986 0.06589212 -0.038891945
000010 3b 66 5a 3e a6 10 1e 3e 68 58 46 3e 93 29 0e be
       0.2132806 0.15436038 0.19369662 -0.13883047
000020 7e cd 8b be 15 48 c6 3d 38 cc 0d 3e 00 73 27 3d
       -0.27305216 0.09681717 0.13847435 0.040881157
000030 64 84 58 bb bc e6 3d be 26 bf 9a bd 99 f9 7b 3e
       -0.0033037895 -0.1854505 -0.0755599 0.24606933
000040 d8 d2 b3 3d d2 ef 47 3e 27 a9 89 be 60 05 2b bd
       0.0878045 0.19525078 -0.26886865 -0.041753173
000050 13 b5 31 be c8 be 4f 3e 43 a3 76 3c 8e 3d 82 bd
       -0.1735423 0.20287621 0.015053573 -0.06359397
000060 3f 10 e5 3d 3e ab 67 be 22 81 8a be 01 1c 9e bd
       0.11184739 -0.22623917 -0.27051646 -0.07720185
000070 e9 7e 87 3e 18 c3 b0 3e 37 02 c7 bd 1f 12 62 3c
       0.26464012 0.34523845 -0.09717219 0.013798266

hyper_layers.BN0_exp.weight f4 [32]
000000 40 08 8f 3f a9 24 5d 3f 84 29 6d 3f 71 ba 68 3f
       1.1174393 0.86384064 0.9264147 0.90909487
000010 11 6d 78 3f 87 82 76 3f 7e 3b 73 3f 50 6c 77 3f
       0.9704142 0.9629292 0.9501265 0.96649647
000020 13 63 88 3f a8 8f 68 3f 63 e8 83 3f c4 53 74 3f
       1.0655235 0.908442 1.0305294 0.95440316
000030 f9 45 8e 3f 5c 24 88 3f d9 0b 85 3f 2b cb 80 3f
       1.1115104 1.0636096 1.0394241 1.0062002
000040 3f ed 81 3f b7 41 81 3f f2 6c 91 3f 79 f5 7a 3f
       1.0150527 1.009818 1.1361372 0.9803081
000050 d1 a7 80 3f f6 79 7d 3f af 6d 6a 3f cb 65 82 3f
       1.0051214 0.9901422 0.91573614 1.0187315
000060 2c 7c 79 3f c4 40 6c 3f 95 8c 8e 3f c5 fd 80 3f
       0.97455096 0.92286325 1.1136652 1.0077444
000070 88 dd 7d 3f 13 ed 80 3f fa d3 82 3f 0c 91 7e 3f
       0.99166155 1.0072349 1.022094 0.99440074

hyper_layers.BN0_exp.bias f4 [32]
000000 49 ba 42 3b af 98 d3 bd 1f a5 af bd cb f2 03 bd
       0.0029713085 -0.103318565 -0.08576416 -0.032213967
000010 73 f0 88 3c 32 e1 3a bd 92 d3 f1 bd 48 0a b3 ba
       0.016716218 -0.04562492 -0.11807932 -0.001365968
000020 47 1f 23 3d 22 37 c4 bd fe 97 85 bd 42 46 75 bd
       0.03982475 -0.09580828 -0.06523131 -0.059881456
000030 f8 1a ac 3d 9f 4a 92 3c fc 47 c5 bb ee 49 9c bd
       0.084035814 0.017857848 -0.006020544 -0.076312885
000040 73 b4 ba 3d 88 a1 98 bc a3 6b 4c 3c c7 97 4e bd
       0.09116449 -0.018631712 0.0124768345 -0.050437715
000050 5f 0c 86 bd 78 bb 8c 3d 98 60 d2 bd 61 34 a5 bc
       -0.06545328 0.06871694 -0.1027233 -0.020166578
000060 33 6b 52 bd 88 80 79 bd 8f aa 13 3d c2 cc d7 3b
       -0.051371764 -0.060913593 0.03605133 0.0065856883
000070 11 61 6b 3d d2 a7 46 bd 32 44 aa 3b d8 98 c5 bc
       0.057465617 -0.04849989 0.005196118 -0.024120733

hyper_layers.BN0_exp.running_mean f4 [32]
000000 03 70 18 3f ae 45 cb bd c2 f5 e4 bd b0 60 62 3e
       0.59545916 -0.099254 -0.11179687 0.22107196
000010 20 c8 87 3e ec 5d 40 bd e6 cd 0b 3e 38 ca a9 be
       0.2651987 -0.04696457 0.13652763 -0.33162093
000020 15 6f 02 bf fa 66 bb 3b 44 05 15 3f a4 62 03 3f
       -0.5095075 0.005719063 0.5821116 0.5132239
000030 d7 30 b3 3d 01 80 c4 bd 39 13 01 3d 01 9b 2e bd
       0.0874955 -0.09594727 0.031512473 -0.042628292
000040 ba e3 d3 3e dd a3 59 3e 83 0d 3e be 58 81 8e be
       0.4138468 0.21253915 -0.18559842 -0.27833056
000050 93 49 25 3e 1a 7c de 3d 62 24 17 b9 40 3e f8 3d
       0.16141348 0.10863514 -0.00014414036 0.12121248
000060 84 a4 49 3c 48 ab 25 be ee 57 d4 3d 88 b8 b5 be
       0.01230729 -0.1617862 0.10368334 -0.3549235
000070 c4 51 24 3e 3a de ed 3e 0a eb 0b bf 1c 14 ac 3e
       0.16046816 0.46458608 -0.54655516 0.33609092

hyper_layers.BN0_exp.running_var f4 [32]
000000 7f 30 56 3e 39 86 ad 3d 59 54 a3 3e 18 b2 b6 3d
       0.20916937 0.084728666 0.3190029 0.089206874
000010 ea d7 39 3e ec 26 83 3e 3e 50 58 3e 10 67 01 3f
       0.18148771 0.25615633 0.2112436 0.50547886
000020 60 94 15 3e 2b 4d b2 3d fd 1c 13 3e cd 92 f5 3d
       0.14607382 0.08706125 0.14366527 0.11990891
000030 e8 a7 45 3e 89 f5 32 3e ae 07 da 3d 46 4f 46 3e
       0.19302332 0.17476477 0.10645996 0.19366178
000040 f0 b3 df 3c 35 68 1a 3f c5 2f 08 3d 93 b1 33 3e
       0.02730748 0.6031526 0.03324868 0.17548208
000050 14 46 b9 3e ae 7c 95 3d 9e 7c 65 3e 13 34 ee 3d
       0.36186278 0.072991714 0.22410819 0.11631026
000060 77 51 e5 3e 00 70 0b 3e a5 46 2f 3e a9 7e 46 3e
       0.44788715 0.13616943 0.17116793 0.19384255
000070 de a2 de 3e bb 5f 7c 3d 3e 68 f0 3d b4 b5 f1 3d
       0.43483633 0.061614733 0.117386326 0.11802235

hyper_layers.Conv1.weight f4 [32, 32, 1]
000000 b8 19 35 be cc c6 12 3e ca 0b 0a 3d c7 6b ad bd
       -0.17685592 0.14333647 0.03370265 -0.084678225
000010 70 e4 2d be 3a 1a 30 3e b8 f0 eb 3d 09 05 03 3e
       -0.16981673 0.17197505 0.11520523 0.1279489
000020 e7 a3 30 3b 85 87 81 be 72 b2 d8 3d 91 0b 8d bd
       0.0026953162 -0.25298706 0.10580911 -0.06886972
000030 64 9d 84 bd 0f c9 42 be 55 ea 5e bd 70 39 ac bd
       -0.064753324 -0.1902201 -0.054422695 -0.08409393
000040 1c dd c3 bd 7f 28 50 be b9 b2 48 be e4 f1 00 be
       -0.09563658 -0.20327948 -0.19599427 -0.12592274
000050 43 77 a4 bd a0 06 b0 3d 79 af 34 bd b7 7c 6d bd
       -0.0803056 0.085950136 -0.044112656 -0.057980265
000060 71 81 a7 bd 66 64 19 3d 01 d2 8d be 7b 3c 2a bd
       -0.08178986 0.037449263 -0.27699283 -0.041561585
000070 4c 31 f6 bd f5 b6 bb 3c 94 43 f2 3b 92 a6 be bd
       -0.120211214 0.02291439 0.00739331 -0.093091145
000080 01 8c dd 3d 51 fe 1a be 26 e0 05 3e 17 e6 70 bd
       0.10817719 -0.15136077 0.13073787 -0.05881318
000090 ca 30 ba bc cd 72 27 be b2 04 e2 bc 96 76 44 3e
       -0.022728343 -0.16352387 -0.02759013 0.19185862
0000a0 f8 39 5e 3e 67 07 64 3e d5 6e 56 bd 90 a1 47 3e
       0.21701801 0.22268449 -0.05235179 0.19495225
0000b0 73 b0 15 3e c5 41 ac 3d 0c 5c 27 3e 7f f4 8d bd
       0.14618091 0.08410982 0.16343707 -0.069313996
0000c0 58 70 14 be 13 67 e3 bd a7 21 aa ba d1 9d 18 3b
       -0.1449598 -0.11103644 -0.001298 0.0023287425
0000d0 27 7b fc 3d 38 50 07 3e 38 ea e8 3d 4f 17 30 3e
       0.12328177 0.13214195 0.11372799 0.17196392
0000e0 d1 2c f8 bb 60 27 e9 bb ce b5 91 bd 61 2a b3 be
       -0.007573702 -0.0071152896 -0.071147546 -0.3499327
0000f0 a2 e5 b9 bd 69 d9 30 3d d3 d7 c1 3d 82 4f 47 be
       -0.09077002 0.04317609 0.09464993 -0.19463924
000100 e7 ea e4 bc 44 be f7 3d 88 19 b0 3d a4 a8 9c 3d
       -0.027944041 0.12096837 0.0859862 0.07649353
000110 ad a8 32 be 20 83 20 3e 13 57 3a 3e 34 6b 64 bc
       -0.17447157 0.1567502 0.18197279 -0.013941575
000120 4c 31 15 3d b6 ee c2 bc aa c9 08 be b8 e7 93 3d
       0.036423966 -0.023795467 -0.13358179 0.07221931
000130 6e de 06 be de 3c 71 be 09 cb f3 bd c8 e2 ae 3d
       -0.13170788 -0.23558375 -0.1190396 0.08539349
000140 04 0f db bd 97 64 f5 bd 76 bd 13 3d c2 91 1a bd
       -0.106962234 -0.119820766 0.036069356 -0.03773666
000150 61 bf eb 3d 2c 36 b1 bc 79 23 f9 3d d3 23 d4 bd
       0.11511112 -0.021632276 0.12164969 -0.103583954
000160 ef 84 00 be f4 fe 3e be c2 71 41 bd 8b e5 30 be
       -0.1255071 -0.18651944 -0.04722763 -0.17275064
000170 68 9b 53 bd 2e 93 3c be ee e5 d5 bc 1b 66 11 3d
       -0.05166188 -0.1841552 -0.026110616 0.035497766
000180 0a f5 c6 bc 5d 97 36 bd 6d 33 d0 3d f8 fe 34 3e
       -0.024286766 -0.044577945 0.10166059 0.17675388
000190 f8 a8 ad bd 40 a1 9a bd 3f 64 c0 bd b7 a8 01 be
       -0.08479494 -0.07550287 -0.093941204 -0.12662016
0001a0 7e 2d 8c bd 57 9e f3 3d f3 b8 96 bc 87 6f aa 3d
       -0.068446144 0.11895435 -0.018398738 0.083220534
0001b0 32 1a 38 be 05 40 a6 3d 99 ba 5a 3e 39 14 6c 3d
       -0.17978743 0.081176795 0.21360244 0.057636473
0001c0 87 90 b6 bd 06 30 17 3e d1 ba e8 bd 2c fe 0e be
       -0.08914285 0.14764413 -0.113637574 -0.13964146
0001d0 75 58 26 3e 05 16 d5 3d fb 49 ef 3d 35 8d 32 be
       0.16244681 0.104045905 0.116840325 -0.17436679
0001e0 97 52 bd 3c 90 4f 68 3b c2 6f 9c 3d d0 85 0b be
       0.023110671 0.0035447814 0.076385036 -0.13625264
0001f0 de b3 34 3e da ed 94 3d d2 25 72 3e e5 bf 1d be
       0.17646739 0.07271929 0.2364724 -0.15405233
000200 ee 74 f3 3d 9a 7d 27 3e cf b3 f4 3d ce 34 1c 3e
       0.11887537 0.16356507 0.11948358 0.15254518
000210 24 0f 22 3e 16 7c 71 3e bb 8b 07 be 58 35 2a 3d
       0.15826088 0.23582491 -0.13236897 0.04155478
000220 ca b0 d0 3d c3 d4 03 3e de 02 69 3c a1 b7 02 bd
       0.1018997 0.12874131 0.014221875 -0.031913403
000230 e0 aa b1 3d cb 34 04 bd 15 15 8a 3c 56 4b 42 3e
       0.0867517 -0.03227691 0.016855756 0.18974051
000240 cd 9c a3 3d 32 83 d7 3d 52 9c e1 3c a5 40 f3 3d
       0.07988892 0.105230704 0.02754036 0.11877564
000250 c0 7b 2e be 2c d1 01 bd 6d d6 fb 3d af e9 d5 3c
       -0.17039394 -0.031693622 0.12296758 0.026112406
000260 90 17 88 3d 8a 21 10 be 5e 3e 37 bd 76 69 b9 3b
       0.06645119 -0.14075294 -0.044737212 0.005658324
000270 d1 ef e9 3d 7c 07 ed bd 7d 31 01 bd 32 c4 17 3e
       0.114226945 -0.11573693 -0.031541336 0.14820936
000280 b1 8a 28 bd 5c 11 51 be 51 d1 8c 3d 05 dd 0f be
       -0.04114789 -0.20416778 0.068758614 -0.14049156
000290 6e ba 23 be 90 23 e7 bc 8f 33 38 be 43 d8 2e 3d
       -0.15989086 -0.0282152 -0.17988418 0.042686712
0002a0 8d 0d 9c bc 33 27 e6 3c 52 ac 1e bd 73 ff 48 be
       -0.01904943 0.028094864 -0.038738556 -0.19628696
0002b0 6e 36 fb bb 18 bd 84 3d ca f1 c0 bc 84 a5 07 3e
       -0.0076664006 0.06481379 -0.023552794 0.13246733
0002c0 fd bc 56 bc 6f e4 ec bc de 09 20 3e ac 85 4e 3e
       -0.013106582 -0.02891752 0.15628764 0.2016818
0002d0 c2 9d 17 be 30 bd e1 bd 9a 90 9a 3d cc 81 00 3e
       -0.14806274 -0.11022413 0.07547112 0.12549514
0002e0 1c c0 4a bd a5 e6 8b bd 0a e8 a3 3c 20 6a 13 3e
       -0.049499616 -0.06831101 0.020008106 0.14395952
0002f0 c6 32 2e be 5f 80 0a 3e 61 d2 df bc bf dc 9a bb
       -0.17011556 0.13525532 -0.027321996 -0.004726022
000300 d4 a8 35 3e 64 00 0b be 0e fc b1 3c f2 b0 9c 3c
       0.17740184 -0.13574368 0.021726634 0.019127343
000310 95 46 6c 3e 5b 63 4f be a2 fe 80 bd ed 97 56 bd
       0.230738 -0.20252745 -0.06298567 -0.05239098
000320 f0 a8 f9 bd 2d 24 23 be 42 d2 bc bc 86 74 3f be
       -0.121904254 -0.15931769 -0.023049477 -0.18696794
000330 a4 f1 43 3e b6 95 80 bc 36 fe d2 bc 78 8c 3a 3c
       0.19135147 -0.015696388 -0.025755983 0.011386029
000340 62 5b b6 bd 01 6b 0c 3e 0d e9 9e bd 60 c7 4b bd
       -0.08904149 0.13712694 -0.07759295 -0.049750686
000350 a7 a2 b6 bd aa 12 18 3e 28 6f ee 3d 1e 77 e4 bd
       -0.08917742 0.1485087 0.11642295 -0.11155532
000360 f9 96 48 bd 2f 54 df bd 64 29 0d 3e 19 b2 ea 3d
       -0.048972104 -0.109047286 0.1378532 0.11459751
000370 2e 74 b8 3d d6 33 45 3d 72 04 35 be d6 5e 2b be
       0.090065345 0.048145138 -0.17677477 -0.16735396
000380 99 8e a3 be 73 e2 4d 3e 1c 9c a2 bd e0 e8 53 3e
       -0.3194473 0.20105915 -0.07939932 0.20694304
000390 1c 7f 5f 3d be f6 1f 3e b5 5a 89 3d 26 d2 44 bb
       0.05456458 0.15621468 0.06706754 -0.0030032485
0003a0 00 12 91 bb bc bd d9 3b 52 05 7c bd 85 be 63 3d
       -0.0044271946 0.0066449326 -0.06152851 0.055601615
0003b0 59 b6 30 be ec 3b 01 bc 09 ec a7 bd 34 f0 6f 3e
       -0.1725706 -0.007887822 -0.08199317 0.23431474
0003c0 9b e5 21 3c e3 c9 3c be 81 d0 3a 3e 01 b5 0f 3e
       0.009881402 -0.18436389 0.182436 0.14033891
0003d0 c3 80 e6 bd 08 e6 b1 3d 43 59 37 3d fa 30 c3 3b
       -0.11255028 0.08686453 0.04476286 0.005956766
0003e0 8c 27 ab bd 2d 42 e6 bd 7c 04 20 be 32 bd 90 bd
       -0.08357152 -0.11243091 -0.1562671 -0.07067336
0003f0 73 ea 48 be df f9 e5 bd 96 91 c4 bd 17 a3 c4 3c
       -0.19620685 -0.112293 -0.09598081 0.024003549

hyper_layers.Conv1.bias f4 [32]
000000 92 8d 85 3c 42 66 37 be bf c3 0b bd ec 96 09 be
       0.016302858 -0.17910102 -0.034122225 -0.13436478
000010 e5 f3 d4 bd 95 8b cc bc fb 3d 06 3b 27 37 d2 bc
       -0.10398082 -0.024968902 0.002048372 -0.025661064
000020 1d 28 22 bc da 9e 0e be b2 90 4b 3d 5b ab 25 3e
       -0.009897259 -0.13927785 0.04969854 0.16178648
000030 bb 75 10 3e 04 ab 58 3d 43 d6 63 bd 03 15 1f 3e
       0.1410741 0.05289747 -0.055624258 0.15535359
000040 07 f5 0c be 9d c1 8f 3d f8 16 e0 3c 04 1d 98 3c
       -0.13765346 0.07019351 0.027354702 0.018568523
000050 bc 55 d2 bd 44 76 0c be 49 9f b0 bd 02 72 fc bd
       -0.10270259 -0.1371699 -0.08624131 -0.12326433
000060 89 ed 18 be 36 e9 fc 3d 54 d7 c3 3c d6 97 b6 3d
       -0.14934362 0.12349169 0.023906387 0.08915679
000070 dd 09 67 3d 08 11 30 3e 4f 23 9e bd f0 2e b2 bd
       0.05640589 0.17193997 -0.07721578 -0.08700359

hyper_layers.BN1.weight f4 [32]
000000 ce a4 66 3f 88 a9 62 3f dc d0 6f 3f 59 64 7d 3f
       0.9009522 0.88539934 0.9367807 0.98981243
000010 f8 61 6c 3f 9e 5f 80 3f cc 94 8a 3f 64 4c 74 3f
       0.9233699 1.002918 1.0826659 0.9542906
000020 2d 6b 64 3f 8c d0 76 3f 70 14 81 3f 8c 7c 73 3f
       0.8922604 0.9641197 1.0084362 0.9511192
000030 ea 78 82 3f 94 9e 85 3f b1 fa 82 3f 30 d5 8a 3f
       1.019315 1.0439019 1.0232755 1.084631
000040 f9 95 76 3f 51 f3 84 3f 6a 60 79 3f 2b 89 81 3f
       0.9632259 1.0386754 0.9741274 1.0119985
000050 22 d1 77 3f d4 77 6f 3f c3 36 86 3f b1 79 82 3f
       0.96803486 0.9354222 1.0485462 1.0193387
000060 e3 ef 84 3f 32 e6 84 3f ea 17 63 3f 43 cc 76 3f
       1.0385708 1.038275 0.88708365 0.9640543
000070 ed e5 85 3f 17 ca 82 3f 0d ca 70 3f 2e 0f 84 3f
       1.0460793 1.0217923 0.94058305 1.0317132

hyper_layers.BN1.bias f4 [32]
000000 f5 ff 5f bc 78 35 8b bd 74 70 e9 bc 26 e1 68 bd
       -0.013671865 -0.06797308 -0.028496005 -0.056855343
000010 58 f1 e2 bd 1f 3e 95 3c 86 bc 16 3d 26 90 7a 3c
       -0.11081189 0.018218098 0.036800884 0.015293157
000020 42 d1 b8 bd 10 2f e8 bd 53 a3 7c 3d b6 2c b9 bb
       -0.09024288 -0.113371015 0.061679196 -0.005651082
000030 20 f7 81 3c 74 ba 63 bd 74 21 99 3c 7f 4e 80 3b
       0.015864909 -0.055597737 0.01869271 0.0039156075
000040 08 3c b3 bc bc 68 76 bd 50 d0 a6 bd c4 94 b6 bd
       -0.021879211 -0.060158476 -0.08145201 -0.089150935
000050 9b 58 82 bb 5a b6 3d 3e 49 f1 be bc f3 61 1a 3d
       -0.0039778478 0.18526593 -0.023308413 0.037691068
000060 ea a6 e4 bd 7a 0e 90 bc 70 e6 48 bd 9f e1 c4 3d
       -0.11164649 -0.017585028 -0.049047887 0.09613346
000070 98 fa 21 3d 34 20 4f 3c f6 c7 f1 bb 0c 0f e7 3b
       0.039545625 0.012641955 -0.0073785735 0.0070513543

hyper_layers.BN1.running_mean f4 [32]
000000 fb 97 36 bf 75 42 a6 3d cc f8 f9 be 0c 34 06 3b
       -0.71325654 0.081181444 -0.4882263 0.00204778
000010 a0 d4 00 3f 30 37 1c be b7 f1 d7 bd 32 32 87 be
       0.5032444 -0.15255427 -0.1054415 -0.26405483
000020 c2 eb 2d 3e b1 3f a3 3d 48 0d e3 be 43 a2 53 3e
       0.16984466 0.079711325 -0.4434607 0.20667367
000030 27 81 15 3f fc 99 d3 3e 16 b6 21 3c 5b 35 98 bd
       0.58400196 0.41328418 0.009870073 -0.07432052
000040 c6 f0 56 be 77 f2 8f 3e 80 42 c1 3e e8 0a 4c 3f
       -0.20990285 0.28114673 0.37746048 0.7970414
000050 6e aa d1 3d 86 e5 f3 be bc f3 09 be b4 70 21 3c
       0.10237585 -0.4763605 -0.13471884 0.009853531
000060 d6 16 c4 3e e8 4c 2f 3e 56 ba 68 3e 28 4e 14 bf
       0.38298672 0.17119181 0.22727332 -0.57931757
000070 8b f2 19 bd a5 f3 6b be 93 5c 19 be 31 d4 61 3e
       -0.037584823 -0.23042162 -0.1497672 0.22053601

hyper_layers.BN1.running_var f4 [32]
000000 7a d1 4a 3f 3a e9 47 3e 0f e8 da 3e 4b 5d 60 3e
       0.79225886 0.19522563 0.42755172 0.21910588
000010 03 a3 e4 3d c8 95 90 3e 71 f9 3e 3f 25 49 2e 3f
       0.111639045 0.28239274 0.7459937 0.6808036
000020 6d 2e c7 3e 04 91 2c 3e 9d d2 f6 3e fc 10 56 3e
       0.38902608 0.16852194 0.4820756 0.20904917
000030 b5 4c bd 3e 58 1f d4 3e 0f f1 07 3f fc b0 2f 3e
       0.36972585 0.41430163 0.531022 0.17157358
000040 b5 78 73 3f 32 10 99 3e f2 75 88 3e 2e 04 d5 3e
       0.9510606 0.2989517 0.26652485 0.4160475
000050 91 86 a1 3e 90 95 f2 3d 66 4e 05 3e 98 83 49 3e
       0.3154798 0.11844933 0.13018188 0.19679105
000060 82 18 c4 3e 61 15 23 3e 6e 1c 1c 3e 2e 1f 45 3e
       0.38299948 0.15926124 0.1524522 0.19250175
000070 d2 86 1d 3f 77 ef 81 3e a6 6a e2 3e 79 bf 7b 3e
       0.61533844 0.2537801 0.4422199 0.2458476

hyper_layers.Conv1_exp.weight f4 [64, 32, 1]
000000 f3 5d 0a 3e 9b 56 62 3c c3 9c fa 3d 1e 64 da 3d
       0.13512401 0.013814594 0.12236931 0.10663627
000010 8c 78 af bd 08 e4 11 3d 7f c8 cb bd fa 39 f1 bc
       -0.08567914 0.03561786 -0.09950351 -0.02944659
000020 b6 74 48 bd 17 30 93 be 66 a8 aa 3d e5 b9 0f 3e
       -0.04893943 -0.28747627 0.08332901 0.14035757
000030 69 28 10 be 26 0d 3e be 37 66 3c bc 95 16 dd bb
       -0.14077915 -0.18559703 -0.011498979 -0.0067470768
000040 21 64 7a 3d b0 a4 99 bd f8 58 8e bd 7a 16 b9 bb
       0.061130647 -0.07502115 -0.06950563 -0.0056484314
000050 0b 11 07 be 62 11 b4 bd af 6f 63 3e 2f b7 ad bd
       -0.13190095 -0.08792378 0.22210573 -0.08482205
000060 eb 02 5d be db c0 15 be 5f 51 b5 3d 44 7d 1a 3e
       -0.21583144 -0.1462435 0.08853411 0.15086848
000070 1e 06 f8 bd d1 27 bd bd 9c 8e e1 3d b2 fa 51 bd
       -0.12110542 -0.0923611 0.11013529 -0.051264472
000080 ee 02 71 bd 54 75 ba 3d b8 5b e1 bd f6 63 16 3e
       -0.058840685 0.0910441 -0.11003822 0.1468657
000090 ec 24 44 be 01 a0 20 3e 16 be 30 be 02 15 48 be
       -0.1915471 0.15686037 -0.17260012 -0.19539264
0000a0 80 0a 17 3e d9 98 01 3d 99 3c 65 be a1 32 ee 3d
       0.14750099 0.031639908 -0.22386397 0.116307504
0000b0 79 4c 04 3b c4 6c 6c bd c4 ad 89 3d 07 02 a5 3d
       0.0020187183 -0.057720914 0.06722596 0.08057027
0000c0 af 4e 20 be f8 29 a0 bd 74 0e c7 bd 5d c8 00 be
       -0.15655015 -0.07820505 -0.097195536 -0.12576433
0000d0 62 a4 ed bd 72 b5 46 be c0 9b 59 3d c3 0f 09 be
       -0.11603619 -0.19405153 0.05312705 -0.13384919
0000e0 b2 ca 16 be e4 89 d1 3b 70 0d a4 3d 94 c9 05 be
       -0.1472576 0.0063946117 0.080103755 -0.13065177
0000f0 b3 06 67 3d c1 b9 98 3d 50 c6 94 bc c8 f2 c2 bd
       0.056402873 0.07457305 -0.018160969 -0.09518963
000100 82 d2 85 bd 5c 04 ab bd 90 4f 0f bd b1 7c 19 3e
       -0.06534292 -0.08350441 -0.034987986 0.14988972
000110 6d e0 07 be 73 ca c6 bd ae c7 4f be 8b 07 19 3e
       -0.13269205 -0.09706583 -0.20291016 0.14944284
000120 60 99 a4 3d 9b 41 b2 bd 04 62 fa 3d 39 7b 8a bd
       0.080370665 -0.087039195 0.12225726 -0.06761784
000130 cc e7 33 be 8e f8 42 3e b8 be 1e 3d 07 2b 30 bd
       -0.17568892 0.19040129 0.038756102 -0.043009784
000140 7c f2 49 bd af 6a 41 3e f8 f2 ee bd 1c f9 a2 3d
       -0.049303517 0.18888353 -0.11667436 0.0795767
000150 1b 08 cd 3c 4f 6a 16 bd 30 3f 36 bd 6a cb 7d 3d
       0.025028279 -0.036722478 -0.044493854 0.06196157
000160 02 be 4a 3d ee da 63 3d 6d 0f 0e 3e 3e c2 3f be
       0.04949761 0.05562871 0.13873072 -0.18726441
000170 59 50 9a bd 25 ca 46 bd 63 bc ac 3c dc 71 08 3e
       -0.07534856 -0.048532624 0.021085924 0.13324684
000180 1b 9a 1c 3d 7c be bf bd cf 23 57 3b b4 2c 93 bd
       0.038232904 -0.09362504 0.003282774 -0.07186261
000190 b0 77 35 bd 3f 1d ec bc a0 8b 69 3e 3f ea 81 be
       -0.044303596 -0.02882254 0.22807169 -0.25374028
0001a0 7a 79 4b 3c 2d 5d a3 3d c5 e4 35 be 00 a7 95 3d
       0.012419099 0.07976756 -0.1776305 0.07307243
0001b0 fc ad 93 bc 8f 96 78 bd 37 10 37 3e 74 69 d5 3d
       -0.018027298 -0.06069046 0.17877279 0.10420504
0001c0 60 5b 66 bd 2c de 0c be 0b 25 59 3d 6b 88 8b 3e
       -0.056239486 -0.13756627 0.053013843 0.27252516
0001d0 24 36 0a be 82 98 ac 3d c0 8a 9f 3d d8 dc 26 be
       -0.13497216 0.08427526 0.07790136 -0.16295183
0001e0 e0 b7 50 3e 06 63 d1 bc 08 04 de bd f8 46 ca bd
       0.20382643 -0.025559913 -0.10840613 -0.098768175
0001f0 3d 99 5b 3e dd ba 1a 3d 6c 77 c7 bd 7f 54 92 bd
       0.21445175 0.037775863 -0.09739575 -0.071450226
000200 d2 21 b2 3c 79 b5 02 be 4b f5 27 be d7 90 a7 bc
       0.021744642 -0.12764539 -0.16402166 -0.020454807
000210 54 23 c7 bd 5d 20 00 be 3f a5 8d 3e d1 1d 8b bd
       -0.09723535 -0.12512346 0.27665135 -0.067927964
000220 02 78 c8 bd e9 df ce bd 02 76 53 be 62 bb 93 bc
       -0.09788515 -0.10101301 -0.20650485 -0.018033687
000230 eb 17 11 3e d3 fd e7 bd 2c 0b f4 bd d8 e8 14 be
       0.1416928 -0.1132771 -0.11916193 -0.14541948
000240 17 0f 58 3c 38 49 04 be 8f b2 f6 3c 05 64 c6 bc
       0.013187191 -0.12918556 0.03011444 -0.024217615
000250 96 47 d8 bd dc 9d ec 3d c0 14 4d bc 5d a1 e9 3d
       -0.10560529 0.11553547 -0.012517154 0.11407731
000260 0d 6b c7 3d 9b b4 eb bd bc 21 73 bd f8 70 45 be
       0.09737215 -0.11509057 -0.059358343 -0.19281375
000270 7b a7 bc 3d bd 3e 65 3d 38 d6 3b 3e 02 d7 a8 bd
       0.09211632 0.055968035 0.18343437 -0.082441345
000280 e9 34 08 be 29 7c 89 3d 72 73 81 bd a3 8d d2 bd
       -0.13301434 0.06713135 -0.063208476 -0.10280921
000290 c4 3d 02 be f1 98 f5 3d b2 30 16 be 6e 63 7b 3d
       -0.12718874 0.11992062 -0.14667013 0.06137412
0002a0 29 7c f1 bc a3 ed a9 3c a0 86 8d 3d 99 c5 1a be
       -0.02947815 0.020743197 0.06910443 -0.1511444
0002b0 d4 07 bd bc 2b 0a bf bd 9d e8 9a 3d 13 a1 aa bd
       -0.023075022 -0.09328111 0.07563899 -0.08331504
0002c0 dd cb 0b be 94 d2 d4 3d 37 4d 62 bd 71 b9 1d be
       -0.13651986 0.10391727 -0.05524942 -0.15402772
0002d0 fc 51 97 3d 19 e9 1e 3d 10 25 0d be aa a9 04 be
       0.07388684 0.038796518 -0.1378367 -0.12955347
0002e0 d4 71 af bd 59 40 24 3e d9 37 e2 3d bc 4f 3d be
       -0.08566633 0.16040172 0.11045808 -0.18487448
0002f0 6c 3f d5 3d b2 fb 68 be 79 54 e4 bd 80 f8 31 3e
       0.104124874 -0.22752264 -0.111489244 0.17379951
000300 a4 85 25 3e 96 2d c4 3d 17 62 02 3e 68 46 23 3e
       0.16164261 0.09579007 0.12732731 0.15944827
000310 12 63 16 3d 74 e9 0e 3d 31 1d 6c 3d 7e 83 7c 3c
       0.036715575 0.034890607 0.057645027 0.01541221
000320 50 7b 08 bd 8b 70 c1 bd de c0 a9 3d 80 f0 a4 bd
       -0.033320725 -0.09445294 0.082887396 -0.08053684
000330 67 c7 e8 bd b7 4e 37 be 6d 13 94 bd 8c c8 db bb
       -0.11366158 -0.17901121 -0.07230268 -0.0067072567
000340 87 70 11 be a4 ac 5c be 4b 36 b1 bd d7 03 f3 bd
       -0.14203082 -0.21550232 -0.08652934 -0.11865967
000350 a7 57 28 be c8 0b 12 3e 9e f4 40 3e 95 83 5f bd
       -0.16439687 0.14262307 0.18843314 -0.054568846
000360 46 6e 00 3d ab c6 ff 3c 18 23 2d 3d 8c 21 6a 3c
       0.031355165 0.031222662 0.042269796 0.014290225
000370 6c 04 73 bd 0c 3f 42 3d 5b 6d ad bd 94 66 92 be
       -0.05933039 0.047423407 -0.084681235 -0.28593886
000380 44 9f 0e bc 6d 82 69 bd d3 89 e3 3d 08 ae 41 3e
       -0.008704964 -0.05700915 0.11110272 0.18914044
000390 30 a8 ba bd d4 77 8c bd a2 1a 54 3d 09 e7 56 3d
       -0.091141105 -0.06858793 0.05178321 0.052466426
0003a0 7e e8 2d bb c2 3b 5a be 35 1d 9e bd f0 62 5a bd
       -0.0026536281 -0.21311858 -0.077204145 -0.05331701
0003b0 76 87 db bd 03 c4 86 bd 40 a9 8e be 97 31 e5 3d
       -0.107191965 -0.06580355 -0.27863503 0.11191099
0003c0 4a 45 14 be 6c f1 16 3e d2 a3 de 3d 97 fb b1 3d
       -0.14479557 0.14740533 0.1087109 0.08690565
0003d0 f6 31 b3 bd 23 a6 c0 3d 36 a6 82 bd 42 29 5b bc
       -0.08749764 0.09406688 -0.063793585 -0.013376536
0003e0 2f de f5 3d 36 1b 64 3d f3 44 25 be d1 00 1d be
       0.12005269 0.055690013 -0.16139583 -0.15332343
0003f0 d2 60 35 be f4 6d 94 bd 88 2f 95 3d 3a b9 8c 3e
       -0.17712715 -0.072475344 0.072844565 0.27485067
